mediapipe_hand_tracking/hand-gesture-recognition-mediapipe/model/keypoint_classifier/keypoint_classifier.tflite (tflite, 6544 bytes, 6 tensors)

sequential/dense/BiasAdd/ReadVariableOp f4 [20]
-0.4104159 -0.89093435 -0.538669 -0.7721745 -0.5456207 -0.29964432 0.17582935 -0.38198555
-0.89188176 -0.57213503 -0.61825526 0.51315737 0.3727319 -0.53755265 -0.4303503 -0.59415215
-0.7190344 -0.15776475 0.15037753 -0.2027607
00000000: 0822 d2be 4614 64bf 36e6 09bf 3aad 45bf
00000010: ccad 0bbf fb6a 99be 9c0c 343e 9c93 c3be
00000020: 5d52 64bf 7177 12bf fa45 1ebf 485e 033f
00000030: b7d6 be3e 0d9d 09bf e056 dcbe 5b1a 18bf
00000040: a312 38bf 158d 21be 91fc 193e 80a0 4fbe

sequential/dense_2/BiasAdd/ReadVariableOp f4 [4]
-0.6651121 0.19550608 0.3769879 0.17962648
00000000: c944 2abf bf32 483e 8f04 c13e 01f0 373e

sequential/dense_1/BiasAdd/ReadVariableOp f4 [10]
0.7757727 0.45451707 0.3151972 -0.45726815 0.029896555 0.011050465 0.1262631 0.30462918
0.10477583 0.055974014
00000000: 0a99 463f 76b6 e83e 8761 a13e 0d1f eabe
00000010: 9fe9 f43c 020d 353c 1d4b 013e 5bf8 9b3e
00000020: b694 d63d 0245 653d

sequential/dense/MatMul f4 [20, 42]
-0.11317092 -0.26501787 -0.26737615 0.04655295 -0.06583548 -0.27146488 -0.1638399 -0.35027906
-0.3972616 -0.4746139 -0.020420723 0.17667888 -0.06444972 0.018447002 -0.0017083249 -0.07188291
-0.0030830367 -0.17643297 -0.030724801 0.1750471 -0.030012729 -0.17861861 0.06313918 0.057014205
0.045098916 0.3301576 -0.1757245 0.16592392 -0.0049235364 -0.2169533 0.23307317 0.20046519
0.32495385 0.9553716 -0.11159136 0.093263425 0.06147035 -0.21984474 0.17855082 0.2362762
0.10740623 0.93194985 -0.10036439 0.049788833 0.05564492 -0.6096524 0.31734836 -0.586462
0.25637302 -0.26655048 -0.04044392 -0.34508437 -0.0013068231 -0.06352208 0.1375968 -0.1201131
-0.035568446 0.09663824 -0.11291285 0.10931693 -0.009902807 -0.1699842 -0.024022838 -0.26578513
-0.06057228 0.09948614 -0.053914137 0.16411874 0.30209804 -0.110198066 0.08520972 -0.17323494
-0.059484355 0.13494682 -0.073796205 0.21414362 0.13662255 -0.5376535 -0.008213691 -0.3483763
-0.026537376 0.03687352 -0.016808571 0.1725245 0.18512481 -0.058040082 0.35561934 -0.110865295
0.13765447 -0.45474425 0.06855099 -0.39343658 -0.41677144 -0.5756494 -0.29623726 0.11851573
0.019087715 -0.053345345 0.06042808 0.12073525 -0.08095408 0.101466574 0.07498869 0.2087853
0.046512313 -0.091466576 0.35151705 -0.05729992 0.51982164 -0.112427495 -0.14802155 0.17236991
-0.009255844 -0.0640825 0.5182562 -0.13232587 0.92823374 -0.12940006 -0.32850143 0.03644459
0.00793683 0.020610288 0.10147399 -0.049465306 0.34129748 -0.028197763 -0.012728661 0.23217392
0.9124596 -0.019844593 0.58570504 -0.043156542 0.2205841 -0.06035129 0.121132046 -0.11193727
0.44106075 0.17513932 0.052450877 0.17648749 -0.15589985 0.15128617 -0.24142472 -0.00029907515
0.28474066 0.16537958 0.15246354 0.09705763 -0.17221487 0.026828874 -0.17272197 0.010732912
0.40950704 0.08254414 0.10825452 -0.13571295 -0.14533147 -0.035385333 -0.23388536 -0.0073968177
0.4019058 -0.124817535 0.34560865 -0.0968214 0.15922189 -0.0552809 -0.00058483146 -0.031964652
0.13513196 -0.1703233 0.04702043 -0.06638574 0.111373454 0.14092904 0.25563735 -0.22857885
0.49784037 -0.26682717 0.05141822 -0.0065710894 -0.122997105 0.057906542 -0.06378316 0.14539114
-0.06826275 0.17221984 0.03700536 -0.033666715 0.09399375 -0.033620093 -0.19040544 -0.071251385
-0.6038355 -0.25147054 0.22612017 -0.004963187 0.15243834 -0.05583962 -0.13190679 -0.31516123
-0.8354123 -0.18386142 0.25107285 -0.022930052 0.19987871 -0.15811582 -0.16512275 -0.13154623
-0.21976544 -0.31192377 0.2758634 -0.1719866 -0.099260546 0.19126925 -0.11378527 0.23546258
-0.528726 0.0037871553 -0.59765416 -0.006483697 0.14679253 0.22152604 0.05732088 0.09690008
0.0370276 0.07079056 0.037359826 0.010828695 0.11580811 0.18104978 0.037724797 0.13046406
0.19722742 -0.25599578 0.118860744 -0.37313884 -0.028846912 0.1647636 -0.02026821 0.017304571
0.24387042 -0.32609493 0.36649564 -0.45030957 -0.18032369 0.08251674 -0.042642836 -0.007990181
0.07295556 -0.0479869 0.36679444 -0.32947758 -0.14647143 0.15310135 0.69627714 0.5630923
00000000: 28c6 e7bd 6cb0 87be 87e5 88be 4eae 3e3d
00000010: c1d4 86bd 72fd 8abe a6c5 27be c757 b3be
00000020: df65 cbbe 9800 f3be 5c49 a7bc 4feb 343e
00000030: 37fe 83bd 2b1e 973c dfe9 dfba 5937 93bd
00000040: c60c 4abb d8aa 34be 94b2 fbbc 8c3f 333e
00000050: 41dd f5bc cce7 36be 1d4f 813d ba87 693d
00000060: a4b9 383d 6b0a a93e 20f1 33be f6e7 293e
00000070: 9e55 a1bb 0229 5ebe bcaa 6e3e bf46 4d3e
00000080: 5a60 a63e 3c93 743f 038a e4bd e500 bf3d
00000090: 55c8 7b3d fb1e 61be 07d6 363e 63f2 713e
000000a0: ccf7 db3d 4494 6e3f d88b cdbd 60ef 4b3d
000000b0: edeb 633d 2e12 1cbf 7c7b a23e 6022 16bf
000000c0: 5343 833e 4e79 88be 86a8 25bd e6ae b0be
000000d0: b549 abba dd17 82bd 2de6 0c3e dbfd f5bd
000000e0: 38b0 11bd 45ea c53d da3e e7bd 8ee1 df3d
000000f0: 623f 22bc 5710 2ebe 8bcb c4bc fd14 88be
00000100: a41a 78bd 64bf cb3d 12d5 5cbd be0e 283e
00000110: 98ac 9a3e 86af e1bd 6f82 ae3d 8064 31be
00000120: dea5 73bd 802f 0a3e 7722 97bd 7748 5b3e
00000130: c8e6 0b3e a9a3 09bf b892 06bc 615e b2be
00000140: e964 d9bc b008 173d 21b2 89bc 43aa 303e
00000150: 5c91 3d3e 70bb 6dbd bd13 b63e 580d e3bd
00000160: 4bf5 0c3e 3dd4 e8be 7664 8c3d 8570 c9be
00000170: 1163 d5be c25d 13bf 69ac 97be 60b8 f23d
00000180: d75d 9c3c a680 5abd 6f83 773d 0b44 f73d
00000190: 41cb a5bd b5cd cf3d ac93 993d d0cb 553e
000001a0: b283 3e3d d452 bbbd 0bfa b33e 52b3 6abd
000001b0: 0813 053f 6340 e6bd f692 17be bd81 303e
000001c0: d3a5 17bc b03d 83bd 70ac 043f 6f80 07be
000001d0: baa0 6d3f 7381 04be 5731 a8be ec46 153d
000001e0: 7a09 023c e8d6 a83c 98d1 cf3d 229c 4abd
000001f0: 8bbe ae3e fffe e6bc e08b 50bc 00bf 6d3e
00000200: f496 693f 2191 a2bc c4f0 153f eac4 30bd
00000210: cce0 613e ea32 77bd 1414 f83d 5e3f e5bd
00000220: b7d2 e13e b957 333e bbd6 563d 23b9 343e
00000230: 36a4 1fbe c3ea 1a3e 0b38 77be 30cd 9cb9
00000240: 87c9 913e 4459 293e 671f 1c3e 27c6 c63d
00000250: 1859 30be 3ac8 db3c 07de 30be 19d9 2f3c
00000260: e8aa d13e e70c a93d 8cb4 dd3d 56f8 0abe
00000270: c6d1 14be 36f0 10bd a57f 6fbe 0161 f2bb
00000280: 99c6 cd3e 56a0 ffbd 9ef3 b03e 4c4a c6bd
00000290: 100b 233e 3a6e 62bd 604f 19ba 5eed 02bd
000002a0: 0860 0a3e 3b69 2ebe 7f98 403d 3ff5 87bd
000002b0: c417 e43d b44f 103e e6e2 823e 9310 6abe
000002c0: efe4 fe3e 929d 88be e99b 523d 4b52 d7bb
000002d0: e8e5 fbbd 692f 6d3d bfa0 82bd 6ae1 143e
000002e0: 57cd 8bbd 665a 303e ef92 173d 1ce6 09bd
000002f0: cc7f c03d 39b5 09bd a5f9 42be 3fec 91bd
00000300: f794 1abf bfc0 80be 0c8c 673e 3ba2 a2bb
00000310: cc18 1c3e 16b8 64bd 9312 07be d05c a1be
00000320: 95dd 55bf 2b46 3cbe 9f8c 803e ced7 bbbc
00000330: 01ad 4c3e 1de9 21be f015 29be 0eb4 06be
00000340: 310a 61be 79b4 9fbe f83d 8d3e 411d 30be
00000350: 1d49 cbbd 16dc 433e 4008 e9bd 1a1d 713e
00000360: 965a 07bf ec31 783b ddff 18bf 3175 d4bb
00000370: c850 163e b9d7 623e 4dc9 6a3d 8d73 c63d
00000380: 41aa 173d a4fa 903d 9e06 193d d76a 313c
00000390: cd2c ed3d 1d65 393e 5185 1a3d 5f98 053e
000003a0: fcf5 493e e111 83be 436d f33d 0e0c bfbe
000003b0: 5c50 ecbc cab7 283e 8409 a6bc 51c2 8d3c
000003c0: 2bb9 793e eaf5 a6be 51a5 bb3e fa8e e6be
000003d0: c6a6 38be 89fe a83d 41aa 2ebd 40e9 02bc
000003e0: ba69 953d e98d 44bd 7bcc bb3e 49b1 a8be
000003f0: 9bfc 15be 9ac6 1c3e 383f 323f d126 103f

sequential/dense_1/MatMul f4 [10, 20]
-0.3316506 -0.17423162 -0.26534605 -0.36760372 -0.55631036 -1.1599884 -0.05613976 0.64915603
-0.28938222 0.09487621 -1.2692391 0.06209038 0.09840572 -0.47911355 -1.1903431 0.3132874
-0.02903515 0.41739166 0.4638428 -0.29445678 0.067990474 -0.17192006 -0.38041708 -0.25306237
0.027049592 -1.1840799 0.40178993 0.32180533 0.18030077 -0.07411799 -0.49458328 -0.009819146
-0.13696063 -0.22831541 -0.648777 0.006602532 -0.15828489 0.72495615 -0.5097996 0.04638777
0.19275409 1.1020651 0.5132424 1.0817313 0.24475692 -0.23676677 0.17222817 -0.5083966
0.74075377 0.6794775 0.15998767 0.48701167 0.54746425 0.23022562 -0.12518318 1.064014
0.8537968 0.2427293 0.71346796 0.07761913 0.47786888 -0.065579146 -0.37859488 -0.5852621
0.4052666 -0.15846017 0.67738396 0.13435084 0.34509602 0.21897599 0.16014023 -0.023765836
0.44313976 0.80233777 -0.047082588 0.22688125 -0.17318994 0.21268049 0.08013524 -0.39845386
0.6530538 -0.3520052 0.22628759 -0.49341473 -1.1587015 0.22131822 0.15364487 -0.31457978
-0.051838372 -0.10981385 -0.62453586 0.2250027 0.54542243 -0.98899806 -0.07856254 0.03541928
-0.16369718 -0.0024787246 0.16858374 -0.72922015 0.51061636 -0.5065973 0.64599985 -0.064334296
-0.23796758 0.3405875 -0.99194527 0.22269899 -0.2323462 -0.31160894 -0.0014493715 0.25258574
0.1963649 0.32625526 0.12835985 -0.16784012 -0.825319 0.38958076 0.6582716 -0.09529637
-0.41693863 -0.42615417 0.107840836 -0.33922085 0.47470835 -0.47053006 -0.45731008 0.26000822
-0.014428915 -0.4650186 0.27240902 0.13290371 -0.9680084 0.1452075 0.29562712 -0.37342566
-0.33193856 0.26205063 0.09857314 0.4298064 0.020001024 0.025858989 -0.1888324 -0.072802745
-0.028388351 -0.12393849 1.1477888 1.270975 -0.3654615 0.42168248 0.02619023 0.6394622
0.10268178 0.5230085 -0.048213538 0.22423741 -0.23401116 1.7535443 1.0581158 0.226621
0.75282896 0.16892423 -0.28060022 -0.49337673 0.58830786 0.55878377 0.384369 -0.07193773
0.2300255 -0.19560526 0.71389 0.08289062 -0.5159898 0.67000645 0.38375214 -0.054756813
0.12856823 0.071978 0.017123286 0.56083775 -0.13406724 -0.76103956 0.048821766 0.49614954
0.074102595 -0.4645069 0.10480056 -0.36888573 -0.31534034 0.9084918 -0.23088151 0.015556471
0.081040576 0.1147875 -0.0044612517 0.12431292 0.26311097 -0.087268285 -0.17112067 0.064827465
00000000: 1cce a9be c669 32be 70db 87be 8e36 bcbe
00000010: 5b6a 0ebf 807a 94bf cef2 65bd 172f 263f
00000020: e829 94be 754e c23d 6d76 a2bf 7b52 7e3d
00000030: f088 c93d 5f4e f5be 2a5d 98bf 3567 a03e
00000040: 1fdb edbc 5cb4 d53e ce7c ed3e 0ac3 96be
00000050: 973e 8b3d d00b 30be 07c6 c2be 6491 81be
00000060: 1b97 dd3c ee8f 97bf 69b7 cd3e abc3 a43e
00000070: c4a0 383e 2ccb 97bd 053a fdbe 7ce0 20bc
00000080: 683f 0cbe 84cb 69be 4016 26bf 0e5a d83b
00000090: 6f15 22be ba96 393f 3a82 02bf 1a01 3e3d
000000a0: 5461 453e 7810 8d3f db63 033f 2c76 8a3f
000000b0: 8fa1 7a3e fd72 72be 955c 303e 4826 02bf
000000c0: 0aa2 3d3f 3df2 2d3f cfd3 233e 9859 f93e
000000d0: 9e26 0c3f 44c0 6b3e 0530 00be 9c31 883f
000000e0: 6d92 5a3f 088e 783e d6a5 363f c7f6 9e3d
000000f0: 3bab f43e 5c4e 86bd 30d7 c1be bdd3 15bf
00000100: 1b7f cf3e 6243 22be 0969 2d3f 4493 093e
00000110: 6db0 b03e 3e3b 603e cdfb 233e 92b0 c2bc
00000120: 37e3 e23e 0266 4d3f acd9 40bd 8f53 683e
00000130: b458 31be eac8 593e f21d a43d 2502 ccbe
00000140: 892e 273f 073a b4be efb7 673e dba0 fcbe
00000150: 5550 94bf 3ea1 623e 1555 1d3e 9a10 a1be
00000160: 7954 54bd 15e6 e0bd 95e1 1fbf 1c67 663e
00000170: cea0 0b3f fa2e 7dbf 66e5 a0bd cf13 113d
00000180: 3ca0 27be 1972 22bb 37a1 2c3e 2cae 3abf
00000190: c1b7 023f 5cb0 01bf 3f60 253f b3c1 83bd
000001a0: c6ad 73be 7c61 ae3e 20f0 7dbf 340b 643e
000001b0: 2aec 6dbe 358b 9fbe d6f8 bdba eb52 813e
000001c0: e113 493e ee0a a73e c470 033e 48de 2bbe
000001d0: 1b48 53bf 2177 c73e 7d84 283f be2a c3bd
000001e0: fb78 d5be e130 dabe a8db dc3d 5bae adbe
000001f0: f90c f33e 51e9 f0be 8c24 eabe cc1f 853e
00000200: 4267 6cbc eb16 eebe 3279 8b3e e917 083e
00000210: 66cf 77bf 46b1 143e 705c 973e a631 bfbe
00000220: daf3 a9be 802b 863e b7e0 c93d 960f dc3e
00000230: 30d9 a33c 3bd6 d33c 485d 41be 9b19 95bd
00000240: b08e e8bc 77d3 fdbd beea 923f 4faf a23f
00000250: c51d bbbe c4e6 d73e e58c d63c cbb3 233f
00000260: d34a d23d e3e3 053f 8f7b 45bd 7e9e 653e
00000270: 9fa0 6fbe 2474 e03f 5770 873f 560f 683e
00000280: 66b9 403f 79fa 2c3e d5aa 8fbe e09b fcbe
00000290: 589b 163f 740c 0f3f 03cc c43e 1754 93bd
000002a0: ce8b 6b3e bf4c 48be 7fc1 363f 8fc2 a93d
000002b0: e817 04bf 8b85 2b3f 297b c43e ae48 60bd
000002c0: 64a7 033e 3469 933d 2246 8c3c 1093 0f3f
000002d0: ec48 09be 7dd3 42bf 55f9 473d 5007 fe3e
000002e0: 1ac3 973d d9d3 edbe ada1 d63d 97de bcbe
000002f0: 4a74 a1be eb92 683f 346c 6cbe 92e0 7e3c
00000300: 9af8 a53d b515 eb3d b12f 92bb c697 fe3d
00000310: 7bb6 863e b7b9 b2bd 423a 2fbe 43c4 843d

sequential/dense_2/MatMul f4 [4, 10]
-0.5430598 0.28563568 -0.2646636 0.64524484 0.6757281 0.8484546 0.7014976 0.1945494
0.4151893 -0.95275116 -0.9740425 -0.619044 1.1624486 -0.21443087 -0.8680671 -0.47187588
-0.75135773 0.058719832 -0.05123765 0.4892857 1.2429034 0.2081135 0.19515334 -1.2831419
-0.38789105 -0.6114448 -0.51270014 0.43936184 -1.1493164 -0.028154923 -1.1111829 -0.23973319
-0.9284211 -0.21181121 -0.691799 -0.68708223 0.655127 -1.8142861 0.9824632 -0.041450948
00000000: f805 0bbf d73e 923e fd81 87be c42e 253f
00000010: 84fc 2c3f 5234 593f 5995 333f f537 473e
00000020: b193 d43e 80e7 73bf d95a 79bf ab79 1ebf
00000030: 1ecb 943f c493 5bbe a539 5ebf b799 f1be
00000040: fb58 40bf 3584 703d 92de 51bd a883 fa3e
00000050: 7517 9f3f b51b 553e 47d6 473e fe3d a4bf
00000060: a899 c6be a587 1cbf 5140 03bf 09f4 e03e
00000070: cd1c 93bf 27a5 e6bc 3e3b 8ebf 9e7c 75be
00000080: 01ad 6dbf 0ae5 58be bd19 31bf 9fe4 2fbf
00000090: 67b6 273f 873a e8bf b582 7b3f 78c8 29bd
