mediapipe_hand_tracking/hand-gesture-recognition-mediapipe/model/point_history_classifier/point_history_classifier.tflite (tflite, 6496 bytes, 6 tensors)

sequential_5/dense_16/BiasAdd/ReadVariableOp f4 [4]
0	0x3e9c815c	0.30567443
1	0xbed0c3fa	-0.40774518
2	0x3e8051c5	0.25062385
3	0xbe1d0097	-0.15332256

sequential_5/dense_15/BiasAdd/ReadVariableOp f4 [10]
0	0x3e481039	0.19537438
1	0x3fa0145c	1.2506213
2	0x3bbd1363	0.0057701333
3	0x3ea33095	0.31873003
4	0x3f816c52	1.0111182
5	0x3c067e69	0.0082088495
6	0x3d25e052	0.04049713
7	0x3f6c758b	0.92366856
8	0x3f4929a9	0.78579193
9	0x3d49e3a6	0.049289368

sequential_5/dense_14/BiasAdd/ReadVariableOp f4 [24]
0	0xbe46737b	-0.1937999
1	0xbe07fff7	-0.13281237
2	0xbe248d59	-0.16069545
3	0xbdbf3361	-0.093359716
4	0xbd854204	-0.06506732
5	0xbda85475	-0.08219234
6	0xbd1a2aec	-0.03763859
7	0xbe0bab0f	-0.13639472
8	0x3e507d6b	0.20360343
9	0xbe1b5a58	-0.15171182
10	0xbe150154	-0.14551288
11	0xbda7f7f7	-0.082015924
12	0xbe0ff6cd	-0.14058991
13	0xbd572d60	-0.052533507
14	0xbe2f1dfd	-0.17101283
15	0xbd68f34c	-0.05687265
16	0xbd1e729c	-0.03868352
17	0xbcd9e10f	-0.026596574
18	0xbd52e369	-0.051486406
19	0xbd82659f	-0.06367039
20	0xbdab6c0b	-0.08370217
21	0xbdbc7215	-0.09201447
22	0xbd4dff5c	-0.050292358
23	0xbe22f1ad	-0.15912504

sequential_5/dense_14/MatMul f4 [24, 32]
0	0xbdc3f128	-0.09567481
1	0x3ca3e2f0	0.020005673
2	0x3ebc2d19	0.36753157
3	0xbf6c90e2	-0.92408574
4	0x3f8a2856	1.079356
5	0xbf68622d	-0.90774804
6	0x3f6823e0	0.9067974
7	0xbf3a66f1	-0.72813326
8	0x3f79f1d9	0.97634655
9	0xbed5c4ad	-0.41751614
10	0x3f1c506d	0.6106022
11	0xbe5bbb6a	-0.21458212
12	0x3eb07d6c	0.3447069
13	0x3d1c2b03	0.038126957
14	0x3f10a0c1	0.5649529
15	0x3ee6165e	0.4493894
16	0x3f075706	0.5286716
17	0x3eed2026	0.4631359
18	0x3e31036e	0.17286465
19	0x3f032c58	0.5123954
20	0x3e8c87c1	0.27447322
21	0x3f0178ff	0.5057525
22	0xbdb208b8	-0.08693069
23	0x3f081cae	0.5316876
24	0xbdc9d3b4	-0.09854832
25	0x3ec67b89	0.38766125
26	0xbeb91eb0	-0.36156225
27	0x3ece29ac	0.40266168
28	0xbef52cfc	-0.47885883
29	0x3f0b72a3	0.54471797
30	0xbf491a2a	-0.7855555
31	0x3f097815	0.53698856
32	0xbe829807	-0.25506613
33	0xbe103e3b	-0.14086239
34	0x3ffbbbf4	1.9666734
35	0xbe5c9644	-0.21541697
36	0x3fa176b3	1.2614349
37	0xbf2ff88b	-0.6873862
38	0x3f8e8729	1.1134998
39	0xbf3ef457	-0.74591583
40	0x3f08f638	0.535007
41	0xbf2ce616	-0.67538583
42	0xbe21cd53	-0.15800981
43	0xbf18c649	-0.5967756
44	0xbec9b37f	-0.39394757
45	0xbef6d93f	-0.4821262
46	0xbf29915a	-0.66237414
47	0xbe99828f	-0.2998242
48	0xbf42f80a	-0.7615973
49	0xbe043cc8	-0.12913811
50	0xbf1ed3d9	-0.62042004
51	0x3db88adf	0.090108626
52	0xbf3c515d	-0.7356165
53	0x3db94236	0.09045832
54	0xbf107465	-0.56427604
55	0x3e78a2d5	0.24280865
56	0xbec60cbf	-0.386816
57	0x3e5ad809	0.21371473
58	0x3e163558	0.14668787
59	0x3e222e20	0.15837908
60	0x3e4dc388	0.2009412
61	0x3e8429f0	0.25813246
62	0x3ef72efe	0.4827804
63	0x3e4ed3f2	0.20198038
64	0x3d08d280	0.033403873
65	0xbdc28612	-0.09498228
66	0xbf611ce5	-0.87934715
67	0xbfed0fb2	-1.8520415
68	0xbebb50f0	-0.36585188
69	0xbfb34963	-1.4006771
70	0x3e9cbdfd	0.306137
71	0xbf3e0012	-0.7421886
72	0x3e7d8f54	0.24761707
73	0xbf147555	-0.57991534
74	0x3e6ba376	0.23011574
75	0xbebf1c11	-0.373261
76	0x3edd61d1	0.4323869
77	0xbe929b79	-0.2863424
78	0x3f226953	0.6344196
79	0xbe28a227	-0.16468106
80	0x3f4aca3e	0.7921485
81	0x3d824e3e	0.0636258
82	0x3f56cbca	0.8390471
83	0x3de153d2	0.110023156
84	0x3f254c8f	0.64569944
85	0x3e6094a3	0.219317
86	0x3eaf8b17	0.34285805
87	0x3e90bc2e	0.2826857
88	0x3e7c0820	0.24612474
89	0x3f0e85f0	0.5567312
90	0x3c3dd19d	0.01158562
91	0x3eeda80e	0.46417278
92	0xbeb8c6d1	-0.36089185
93	0x3ecd7df1	0.40135148
94	0xbe8d81cf	-0.276381
95	0x3ee9d577	0.45670673
96	0x3e437abc	0.19089788
97	0xbbca3040	-0.0061703026
98	0xbfd7be33	-1.6854919
99	0x3ecb914e	0.39759296
100	0xbfb32c05	-1.3997809
101	0x3ef600b9	0.48047426
102	0xbf8da88d	-1.1067063
103	0x3f1c7ce9	0.611281
104	0xbf541777	-0.82848305
105	0x3ef9187f	0.48651502
106	0xbeb2fb22	-0.34957224
107	0x3f0312d2	0.5120059
108	0x3bf3e5c4	0.0074431617
109	0x3ef81156	0.48450726
110	0x3e977c38	0.2958696
111	0x3ec8455f	0.39115426
112	0x3ec799d0	0.38984537
113	0x3e79f1a5	0.24408586
114	0x3f225c6b	0.6342227
115	0x3e5f12e2	0.21784547
116	0x3ed1fbfd	0.41012564
117	0x3d41366b	0.047171038
118	0x3f1ed4b4	0.6204331
119	0x3cb5c6ad	0.022189463
120	0x3ed819e8	0.42207265
121	0x3c64b500	0.013959169
122	0x3f22e29d	0.63627034
123	0xbd343d93	-0.044004034
124	0x3e94a742	0.29033858
125	0x3b9df4bd	0.004820435
126	0x3e973007	0.2952883
127	0x3e358d96	0.17729792
128	0x3e1f44da	0.15553609
129	0x3e40996c	0.18808526
130	0x3f8f37fc	1.118896
131	0xbf106710	-0.5640726
132	0x3f890d89	1.0707256
133	0xbec5b953	-0.38617954
134	0x40023e55	2.0350544
135	0xbdd8e10b	-0.105897985
136	0x3fdb194c	1.7117095
137	0x3d571f0f	0.052519854
138	0x3fa02c12	1.2513449
139	0x3c70eeae	0.014705343
140	0x3f63be35	0.8896211
141	0xbd9e3e60	-0.07726741
142	0x3e9864c7	0.29764387
143	0x3c8d896d	0.017277444
144	0x3ee13e26	0.43992728
145	0x3d05553b	0.032551985
146	0xbe9cdc08	-0.3063662
147	0x3e2467e4	0.16055256
148	0xbe9863f5	-0.2976376
149	0x3d37eea0	0.044905305
150	0xbe703b55	-0.23460133
151	0xbe68f975	-0.2275141
152	0x3e8e7def	0.27830455
153	0xbeeeaf43	-0.4661809
154	0xbdfea2d8	-0.12433404
155	0xbf7c8c32	-0.9865142
156	0x3f01825e	0.5058955
157	0xbfcc0020	-1.5937538
158	0x3e966154	0.2937113
159	0xbff900fe	-1.9453428
160	0x3e896484	0.268345
161	0x3d3ba360	0.045810103
162	0xbf87ae08	-1.0599985
163	0x3fb7e03e	1.4365308
164	0xbf275411	-0.6536265
165	0x3f7c7f75	0.98631984
166	0xbecc2de8	-0.39878774
167	0x3f3fe987	0.7496571
168	0x3cab6615	0.0209227
169	0x3eff655b	0.49882016
170	0x3f075a4c	0.5287216
171	0x3efdc03b	0.49560723
172	0x3f25c0a3	0.64747065
173	0x3e88fc65	0.26755062
174	0x3f3247d0	0.6964083
175	0xbe0264aa	-0.12733713
176	0x3f22fb45	0.63664657
177	0xbe7b8028	-0.24560606
178	0x3f22d994	0.6361325
179	0xbea9acc6	-0.33139628
180	0x3ec3b7b4	0.38226092
181	0xbee00456	-0.43753308
182	0xbc96176c	-0.018321715
183	0xbee70da0	-0.45127583
184	0xbe80bd3a	-0.25144368
185	0xbe8871cf	-0.2664933
186	0xbeb88d9c	-0.3604554
187	0xbe095db2	-0.13414648
188	0xbedc15d5	-0.42985407
189	0x3e79c1bf	0.24390315
190	0xbee66f74	-0.45006907
191	0x3ed898a2	0.4230395
192	0x3e804730	0.25054312
193	0xbdb32cf6	-0.0874881
194	0xc02eebd7	-2.7331445
195	0xbf0709e4	-0.52749467
196	0xc002fc22	-2.046639
197	0xbe55b6aa	-0.20870462
198	0xbfbae389	-1.4600688
199	0xbd8472e4	-0.06467226
200	0xbf3336ff	-0.7000579
201	0xbd435df0	-0.047697008
202	0xbe7cdf82	-0.24694636
203	0xbe239437	-0.15974508
204	0xbe54855c	-0.20753998
205	0xbe8d5335	-0.27602544
206	0xbe112924	-0.1417585
207	0xbf089c5b	-0.5336358
208	0x3e3e196b	0.18564384
209	0xbefe8bb2	-0.49715954
210	0x3f1d98c4	0.61561227
211	0xbf00bd2b	-0.5028865
212	0x3ec35d9b	0.38157353
213	0xbf083122	-0.5319997
214	0x3f00e315	0.503465
215	0xbef399e9	-0.47578362
216	0x3f05bca5	0.52240974
217	0xbea02396	-0.3127715
218	0x3ea673ae	0.32510132
219	0xbddae79d	-0.10688708
220	0x3f2e75d7	0.6814856
221	0x3bd7fd5e	0.006591483
222	0x3f06d323	0.5266592
223	0xbec61690	-0.3868909
224	0x3e8b98ec	0.27265108
225	0x3e38c620	0.18044329
226	0x3f4e4a43	0.80582064
227	0x3fe359ab	1.776174
228	0x3f98ed38	1.1947393
229	0x3f8fa8bd	1.122337
230	0x3fad4e9d	1.3539616
231	0x3f5d7eb6	0.8652147
232	0x3f82ef7c	1.0229335
233	0x3ee9cc89	0.4566386
234	0x3f8600db	1.0469011
235	0xbd22ee96	-0.039778315
236	0x3f60932d	0.8772457
237	0xbec9b92f	-0.39399096
238	0x3ef1bff3	0.47216758
239	0xbecbed9f	-0.39829728
240	0x3ce29da8	0.027663067
241	0xbf0b3c9b	-0.5438935
242	0xbe1ada82	-0.15122417
243	0xbf0502ca	-0.5195738
244	0xbe17c99e	-0.14823005
245	0xbec69551	-0.38785794
246	0xbe4d80c6	-0.20068654
247	0xbe5f4a07	-0.21805583
248	0xbd8cc77e	-0.068739876
249	0xbe53de9e	-0.2069039
250	0xbeb1aa77	-0.34700367
251	0xbe6088db	-0.21927206
252	0xbe3e89f3	-0.18607311
253	0xbd99ad43	-0.0750375
254	0x3c836911	0.01604131
255	0x3d11bb30	0.035578907

sequential_5/dense_15/MatMul f4 [10, 24]
0	0x3e46b0cd	0.19403382
1	0x3f250548	0.64461184
2	0x3e58a815	0.21157868
3	0x3f609422	0.8772603
4	0x3ed3eb7d	0.413906
5	0x3f1b4c6c	0.60663486
6	0xbddb0cbe	-0.1069579
7	0x3f861297	1.0474423
8	0x3cca9b06	0.024732124
9	0x3f4df9c2	0.80459225
10	0x3f8e2f39	1.1108161
11	0x3e9f9677	0.31169483
12	0x3f4cfdd8	0.80074835
13	0xbbac6b52	-0.005261817
14	0x3f0a78ac	0.5409038
15	0x3f130162	0.57423985
16	0xbde3ff86	-0.111327216
17	0xbdb89ddc	-0.09014484
18	0xbe5b8c0f	-0.21440147
19	0x3e20b4ae	0.15693924
20	0x3f5c8401	0.8613892
21	0x3f231c28	0.6371484
22	0xbde7c058	-0.113159835
23	0xbe889757	-0.26677963
24	0xbf948c5a	-1.1605332
25	0x3f06c68b	0.526467
26	0xbf62c27d	-0.88578016
27	0x3ee0cc10	0.43905687
28	0x3d31d3e8	0.04341498
29	0x3ed39b79	0.41329554
30	0xbef8db52	-0.48604828
31	0x3ed7e794	0.42168868
32	0xbe5173d6	-0.20454344
33	0xbe087efb	-0.13329689
34	0x3ec7a34c	0.38991773
35	0xbf4e6630	-0.80624676
36	0x3e7c951e	0.24666259
37	0xbeddc094	-0.43310988
38	0xbd6f8452	-0.0584758
39	0xbe8e0802	-0.27740484
40	0xbf1a9a0f	-0.60391325
41	0xbbae532a	-0.0053199725
42	0x3d81c6d1	0.06336749
43	0xbf2ac352	-0.66704285
44	0xbf085c9e	-0.5326632
45	0xbe93486b	-0.28766188
46	0xbf1c25ba	-0.60995066
47	0xbfa3bd84	-1.279221
48	0x3f356af7	0.7086634
49	0xbe86f843	-0.26361284
50	0x3f9777e3	1.1833462
51	0x3e430424	0.19044548
52	0x3f150f17	0.5822615
53	0xbe98dd77	-0.29856464
54	0x3f0d705f	0.5524959
55	0x3d132ff5	0.035934407
56	0x3f1efbf4	0.621032
57	0x3ddf2a8d	0.10896788
58	0xbe9fb274	-0.31190836
59	0xbe00029e	-0.12500998
60	0xbecad44e	-0.396151
61	0xbfb4b524	-1.411778
62	0xbefbb7cc	-0.49163663
63	0x3dcd4c71	0.10024346
64	0x3f2de226	0.679232
65	0xbe8786ee	-0.2647013
66	0x3f58a731	0.84630114
67	0x3f304d95	0.6886838
68	0x3eb48240	0.35255623
69	0xbe07928b	-0.13239495
70	0x3f7fd617	0.9993605
71	0x3f268083	0.65039843
72	0xbef85a1d	-0.4850625
73	0xbe108a36	-0.14115223
74	0xbeb5fee6	-0.35546035
75	0xbf7685a9	-0.962977
76	0xbddabdb7	-0.106807165
77	0x3f4033a5	0.75078803
78	0xbee107c7	-0.43951246
79	0xbdacd85d	-0.084397055
80	0xbc337126	-0.01095227
81	0xbe566d6e	-0.20940182
82	0x3e82fb00	0.25582123
83	0xbf2b5f9f	-0.6694278
84	0xbf43f643	-0.7654764
85	0xbd88a25c	-0.066715926
86	0xbef22d5e	-0.47300237
87	0xbed6b615	-0.41935793
88	0xbed23c14	-0.4106146
89	0x3ecee62a	0.40409976
90	0x3f8078b9	1.0036842
91	0xbec97e64	-0.3935424
92	0xbebe70d9	-0.3719547
93	0xbef82132	-0.48462826
94	0xbf30bbcf	-0.69036573
95	0xbf8eb544	-1.1149068
96	0xbfed8e32	-1.855902
97	0xc01b04c5	-2.422166
98	0xbf3350f9	-0.7004543
99	0xbf85ba4e	-1.0447481
100	0xbf632083	-0.88721484
101	0xc0288567	-2.6331422
102	0xbff797b8	-1.9343176
103	0xbf99b887	-1.2009438
104	0x3f1c7296	0.61112344
105	0xbf326c06	-0.6969608
106	0xbf8caa93	-1.0989555
107	0xbfe1f3c5	-1.7652518
108	0xc01eedae	-2.4832568
109	0xbf6626f1	-0.8990317
110	0xc0168ffb	-2.3525379
111	0xbfc4287c	-1.5324855
112	0xc04af05f	-3.170921
113	0xc00d51da	-2.2081208
114	0xbe94883e	-0.29010195
115	0xc02d4b38	-2.707716
116	0xbf351fec	-0.70751834
117	0xbff989cf	-1.9495181
118	0xc00cf689	-2.2025473
119	0xc006092e	-2.0943103
120	0x3f010952	0.50404847
121	0xbd2ef694	-0.042715624
122	0x3ef7a285	0.4836618
123	0x3ecf88c7	0.4053404
124	0x3ef73676	0.48283738
125	0x3ed3693d	0.41291228
126	0x3f1148ab	0.5675151
127	0x3f03d933	0.51503295
128	0x3ea7d886	0.32782382
129	0x3d6e1727	0.05812755
130	0x3db439cc	0.088000864
131	0x3f7dc46d	0.99127847
132	0x3def6bf5	0.11690513
133	0x3ebe615e	0.3718366
134	0xbdddcd2c	-0.10830149
135	0x3ed431c2	0.41444212
136	0x3f617f25	0.8808463
137	0x3f886f52	1.0658972
138	0x3f2cb170	0.6745825
139	0x3eabfed8	0.33592868
140	0x3e579593	0.21053152
141	0x3ccb9f67	0.024856282
142	0x3f5f3740	0.8719368
143	0x3f138f32	0.57640374
144	0x3f92bea7	1.1464432
145	0x40055b2f	2.0836904
146	0x3f2a61c5	0.66555434
147	0x3fb216cc	1.3913207
148	0x3f927ec3	1.1444935
149	0x3fb41256	1.4068096
150	0x3fa8b3d6	1.3179882
151	0x400eddfe	2.2322993
152	0x3e990fc2	0.29894835
153	0x40001e10	2.0018349
154	0x3fd7aa9e	1.6848943
155	0x3f6ffe5c	0.93747497
156	0x3fa66c6b	1.3001837
157	0x3f6552cb	0.8957946
158	0x3ff26e79	1.8939964
159	0x3fef7775	1.870833
160	0x3f740c42	0.95331204
161	0x3f6697c2	0.90075314
162	0x3f651e41	0.8949929
163	0x3f7099e2	0.93984807
164	0x3ffe927a	1.9888451
165	0x3fe23b15	1.767428
166	0x3f82850e	1.0196855
167	0x3f3afe38	0.7304416
168	0x3ef8e46f	0.4861178
169	0xbf2b2ddc	-0.6686685
170	0x3f7392cd	0.95145875
171	0xbe8bb866	-0.27289122
172	0xbda8affb	-0.082366906
173	0xbe2beaa0	-0.16788721
174	0x3f1b1f0b	0.6059424
175	0xbe9f1abc	-0.31075084
176	0xc019296d	-2.3931534
177	0xbeae5658	-0.3405025
178	0xbf23f628	-0.6404748
179	0x3f039d16	0.5141157
180	0xbf37e08e	-0.7182702
181	0x3f17b456	0.59259546
182	0x3dcaf3dd	0.099097945
183	0xbe1240a1	-0.14282466
184	0x3ec9441a	0.3930977
185	0x3f1d468c	0.6143577
186	0xbe201492	-0.15632847
187	0x3ee9a5a1	0.45634177
188	0xbe617c2b	-0.22020023
189	0xbe4605a4	-0.19338089
190	0xbcb5d695	-0.022197047
191	0x3d9896e3	0.07450654
192	0x3ed7aa65	0.42122188
193	0xbf95cba5	-1.1702772
194	0x3f40073b	0.7501103
195	0xbf659cd5	-0.8969243
196	0xbcf56c99	-0.02995901
197	0xbf92102c	-1.1411185
198	0x3e522a34	0.20523912
199	0xbf7edd26	-0.99556196
200	0x3ed74d8d	0.42051354
201	0xbf6e90f8	-0.93189955
202	0xbf97f244	-1.1870809
203	0x3ed3794a	0.41303474
204	0xbfad220a	-1.3526013
205	0x3e8179cc	0.25288236
206	0xbf557356	-0.83379114
207	0xbe6182c3	-0.22022538
208	0xbe57e3da	-0.21083012
209	0x3dca2400	0.09870148
210	0x3d206b11	0.039164606
211	0x3e3b1be0	0.18272352
212	0xbf411f1e	-0.75438106
213	0xbe81bb6c	-0.25338304
214	0x3c1de5e4	0.00963733
215	0x3ed3a823	0.41339216
216	0x3eb77155	0.35828653
217	0x3fecdbe8	1.850461
218	0x3f6c5081	0.9231034
219	0x400687aa	2.1020303
220	0x3f8b6b0f	1.0892047
221	0x3fd9c058	1.7011824
222	0x3f569306	0.8381809
223	0x40155b67	2.3337038
224	0x3f05187f	0.51990503
225	0x403cc8bd	2.949752
226	0x3ffb6af7	1.9642018
227	0x3f3e5164	0.7434294
228	0x3fd7ae3d	1.6850048
229	0x3f3d9a21	0.7406331
230	0x4004c3e5	2.0744565
231	0x3faa108d	1.3286301
232	0x3f6fca44	0.9366801
233	0x3f373452	0.7156421
234	0x3f4c8b63	0.7990019
235	0x3f469714	0.77574277
236	0x400e20f3	2.220761
237	0x3fca9d33	1.5829223
238	0x3f0fc065	0.56152946
239	0x3f29a66b	0.6626956

sequential_5/dense_16/MatMul f4 [4, 10]
0	0xc03079bd	-2.7574303
1	0x3f4623ee	0.77398574
2	0xc032a263	-2.7911613
3	0x3f8d9e72	1.1063979
4	0x402c0a01	2.6881106
5	0xc0881dad	-4.2536225
6	0xc0927610	-4.576912
7	0xc00be6e9	-2.1859686
8	0x3f89bc51	1.0760595
9	0xc08f695a	-4.4816103
10	0xbfa61425	-1.2974898
11	0xbfd59302	-1.6685488
12	0x3f972b8a	1.1810162
13	0x3d63f4a1	0.05565322
14	0xbf8bd473	-1.0924209
15	0x3f2ccfd4	0.6750462
16	0x3e8368e5	0.25665966
17	0x3fd1e254	1.6397195
18	0x3fab71de	1.3394125
19	0xbec3c5fe	-0.38236994
20	0x3ddd6f91	0.10812295
21	0x3fff8b6b	1.9964422
22	0xbf52838e	-0.82231987
23	0x3ef8c872	0.48590428
24	0xc017f71b	-2.3744571
25	0x3f256b85	0.64617187
26	0x3f715e4e	0.9428452
27	0xbfb5f236	-1.4214542
28	0xbff3ef0d	-1.9057328
29	0x3e9dd3ae	0.3082556
30	0x3f7dd1e3	0.99148387
31	0xbea3b0ae	-0.31970733
32	0x3f35ea87	0.71060985
33	0xbfdd70c9	-1.7300044
34	0xbf331289	-0.6995016
35	0xbeed4e4e	-0.46348804
36	0x3f5a35ce	0.8523835
37	0x3f3b3e46	0.73141897
38	0xbec76ce9	-0.3895028
39	0x3eab067c	0.33403385
